templates/data.pth (torch, 6890 bytes, 6 tensors)

l1.weight f4 [8, 79]
000000 32 4f 2e 3f 29 61 83 3e a9 d1 ae 3d 7e 57 d5 bd
       0.6808959 0.25660065 0.08536083 -0.104170784
000010 c6 c0 14 bf ce 9b 05 bf 4c f4 c9 be e6 ff 37 3f
       -0.5810665 -0.52190864 -0.39444196 0.71874845
000020 99 af 38 3e 65 a9 0e bf ea ec 47 be 62 6b 24 bf
       0.18035735 -0.55727226 -0.1952397 -0.64226353
000030 88 45 40 be e1 7b b4 be 9c 33 9d bd 8f 0c 8e be
       -0.18776524 -0.35250762 -0.07675859 -0.27743956
000040 73 95 0e 3f 28 51 d9 3e 8c 5d d2 3e 63 49 fc 3e
       0.5569679 0.4244473 0.41086996 0.4927474
000050 7a 0d b2 3d 32 7d 95 3e af 9c 39 3e 29 42 3a 3f
       0.08693977 0.2919708 0.18126176 0.727572
000060 c9 11 f2 3e 94 bf 0c 3e dc 09 ad be df d0 58 3f
       0.47279194 0.13744956 -0.33796585 0.8469371
000070 74 09 67 3e 5d 4e 1a bf fe 75 3b 3f fc 86 1d bf
       0.225622 -0.6027582 0.73226917 -0.61534095
000080 5c 88 1d bf 42 7d ce be 73 0a 2d 3e e1 07 2d 3c
       -0.6153619 -0.4032994 0.16898517 0.0105609605
000090 17 85 2a be 2f e9 0c bd 42 73 01 3f 78 7a aa 3f
       -0.16652332 -0.03440207 0.50566494 1.3318624
0000a0 a4 22 bd 3e 0b 27 46 be 36 87 a6 3e cf c2 3d 3e
       0.3694049 -0.19350831 0.32525033 0.18531345
0000b0 d4 1d 58 3e 23 7c 0d 3f b6 d1 1c 3f dd 6c b5 3e
       0.21105129 0.5526754 0.61257493 0.3543462
0000c0 2f 4f cf be 13 46 44 3e b8 d9 19 3e ba 41 18 3e
       -0.404901 0.19167356 0.1502446 0.14868823
0000d0 b1 ed 97 3e e7 52 93 3e d6 39 b2 bd b1 99 90 be
       0.29673532 0.28774187 -0.087024376 -0.28242257
0000e0 60 f8 83 be 79 56 21 be 67 9f 1f 3e 7a fe d0 3e
       -0.25775433 -0.15755643 0.15588151 0.4081915
0000f0 57 6d 8e bf 3b 82 01 3e b0 24 c3 3e 12 54 e5 3e
       -1.1127118 0.12647335 0.38113928 0.44790703
000100 18 e0 be 3e 9b 2d 7f be 5e 2c e6 3e d4 06 a0 3e
       0.37280345 -0.24919741 0.44955724 0.3125521
000110 be d4 d1 3e 1a 82 94 3f f7 d5 11 3f 5a 4e f7 bb
       0.40982622 1.1602204 0.5696711 -0.007547182
000120 67 2f 8d bd c2 05 ff 3d d4 d8 36 3f f8 7a 81 3e
       -0.06893807 0.1245227 0.71424603 0.2528913
000130 70 a6 9f 3e 37 8c 29 be e7 69 83 3e cf 06 12 be
       0.3118167 -0.16557394 0.25666735 -0.1426041
000140 0c e2 63 be b6 43 f0 be 33 9b 33 3f 32 7e de 3e
       -0.22254199 -0.4692666 0.7015869 0.43455654
000150 35 2f 23 3e 27 c1 c1 3e 99 e5 36 3f c5 d9 bd 3e
       0.15935977 0.37842676 0.7144409 0.37080207
000160 f1 ff 04 3f a1 93 f6 3e 4d f4 87 3e e4 d4 48 3f
       0.51953036 0.48159507 0.26553574 0.78449845
000170 c4 97 c7 3e a3 08 ad be 90 ad bd 3e bd da 0e 3f
       0.38982975 -0.33795652 0.3704648 0.5580252
000180 f0 3e 8b bd 8e 34 d2 3d 3c de c5 bd 65 5f 00 bf
       -0.06799114 0.1026393 -0.096615285 -0.5014556
000190 0d ec 7a 3e 0e e2 69 be 4b 0e c0 be 45 49 0c bf
       0.24504109 -0.2284014 -0.37510905 -0.547993
0001a0 36 14 f8 3c ee 9b d4 3e 56 5c 27 3f 38 72 9c 3e
       0.030283075 0.41525215 0.6537527 0.30555892
0001b0 a6 d9 f0 3e a9 d3 69 bd b4 68 07 3f 60 f9 d7 3e
       0.47041053 -0.05708662 0.5289414 0.42182446
0001c0 96 b5 a0 3d 47 11 99 3e 5e c6 d1 bd dc 14 38 3d
       0.07847135 0.29895994 -0.10242914 0.044941768
0001d0 66 71 0a 3f 92 b2 9e 3e d2 8b 06 3f 16 83 26 bf
       0.5407928 0.30995613 0.525571 -0.6504377
0001e0 64 f8 2c 3e d9 ef 3f 3e 05 d7 fd be a0 89 c6 3e
       0.16891629 0.18743838 -0.4957811 0.38776875
0001f0 8c b9 fb 3e 2b 05 9c bd bb 92 c9 bd 1b 86 0b 3f
       0.49165 -0.07618173 -0.0984244 0.54501504
000200 eb 1c d9 bc 47 f2 5b 3c ad 2e 2c be 45 d2 42 be
       -0.026503047 0.013424463 -0.1681468 -0.19025524
000210 c2 22 f1 3d 19 7b 9d be 77 22 e4 3e f7 9b 89 3e
       0.11774208 -0.3075798 0.44557545 0.26876804
000220 47 6c b2 3e 46 52 df bd ba 85 b6 3e 26 45 3a 3f
       0.34848234 -0.10904364 0.356489 0.7276176
000230 7b e0 39 bf ab 59 06 3f 1b e0 7a bb a5 8f 87 bd
       -0.72608155 0.5248057 -0.003828055 -0.06619195
000240 64 d4 1d be de e7 10 bf 5b d1 af 3e 59 a2 97 ba
       -0.15413052 -0.566038 0.34339413 -0.0011568769
000250 d5 45 f5 be e3 80 5c bd 6c 98 58 3e 49 23 10 3d
       -0.4790484 -0.053833853 0.21151894 0.0351899
000260 fa 98 6c be 88 94 ad 3e 63 27 02 bd d5 1a 2e 3e
       -0.23105231 0.33902383 -0.031775843 0.17002423
000270 05 f1 e1 3e 8c 5a ce 3e fa 22 76 3d b7 49 09 3f
       0.44129196 0.40303457 0.06009195 0.53628105
000280 44 2f 57 3f 48 65 0a 3d 60 f2 d2 be 10 cf e6 be
       0.84056497 0.033787996 -0.41200542 -0.4507985
000290 af 1e 1a bf c8 62 43 3f 89 67 42 3e d4 83 13 bf
       -0.6020307 0.76322603 0.18984808 -0.5762303
0002a0 31 62 33 be 7e c5 3a 3e 4f 92 9a 3d a8 57 09 bf
       -0.17517926 0.182394 0.075474374 -0.5364938
0002b0 a2 60 6f be 34 d2 a4 be 06 cc 0f 3f 24 fe e7 3e
       -0.23376706 -0.32191622 0.5617069 0.4531108
0002c0 4f ca f1 bb c3 74 03 3f e8 e1 48 be da a4 e4 3e
       -0.0073788534 0.5135004 -0.19617426 0.44657022
0002d0 3f 02 f9 3e fe fe 76 3f a9 c5 c6 3e 05 1f 95 3e
       0.48634526 0.9648284 0.38822678 0.2912523
0002e0 6e 23 ca be 51 7f 41 3f db 8f 4b bd a2 b8 32 bf
       -0.39480156 0.75584894 -0.04969774 -0.6981298
0002f0 1c 2a 71 3e a8 56 1d bf 9b 49 2b bf ce 27 66 be
       0.2355122 -0.6146035 -0.6690919 -0.22476122
000300 87 60 90 3b a3 e1 da 3e a6 13 3d be 9e 69 20 3e
       0.004406038 0.42750272 -0.18464527 0.1566529
000310 da d1 a6 bb 1b 2a db 3d bd fe 7a 3e 8a 8c 4c be
       -0.005090934 0.1070139 0.24511237 -0.19975486
000320 b9 74 93 3e 27 e8 b2 3e d5 62 c0 3e 03 b7 f3 3e
       0.2879999 0.34942743 0.37575403 0.47600564
000330 54 94 dc 3e 78 36 8c be 2f d3 d0 be d4 7c 57 3f
       0.43081915 -0.27385306 -0.4078612 0.8417485
000340 5b 9b c3 3e a0 cb 1d 3f 1d ab 10 3f 3a ee 32 3e
       0.38204464 0.6163883 0.565111 0.17473689
000350 2f cc 92 be bb 77 4c bd d4 78 ad be d1 fc 82 be
       -0.28671405 -0.04991887 -0.33881247 -0.2558351
000360 7b 47 06 3f 4b e4 95 3e d5 d7 75 3f 8c 29 80 be
       0.5245282 0.29275736 0.9603246 -0.25031698
000370 86 c2 c2 3e a7 97 04 bf 38 c8 b1 3e 0f 9d 63 3f
       0.38039035 -0.51793903 0.34723067 0.8891153
000380 65 ec 95 3e 04 64 96 3e f3 06 53 3e de 6a 10 3f
       0.29281917 0.2937318 0.2060812 0.56413066
000390 1d 11 e3 3e 02 00 bd be 34 5f a8 bd e3 6a 03 3f
       0.44348994 -0.36914068 -0.082212836 0.5133497
0003a0 e1 3b fd 3e 9c 96 2a 3e 8c 82 c6 3c f0 a4 a1 be
       0.49459746 0.16659015 0.024232171 -0.3157115
0003b0 1c 04 e2 3d fb 17 d1 3e 95 97 05 3f 47 d7 17 3e
       0.1103594 0.40838608 0.5218442 0.14828216
0003c0 1a 50 0f bd f2 c2 00 bf 81 4b d0 bd f7 09 33 be
       -0.0349885 -0.5029746 -0.10170651 -0.1748427
0003d0 f9 5b 19 bf 3d c0 e8 3d 02 2f 06 bf b8 3a a3 bc
       -0.59905964 0.113647915 -0.5241548 -0.01992546
0003e0 05 88 93 be 55 a5 50 bf 11 57 b4 be 85 38 31 3f
       -0.28814712 -0.81502277 -0.35222676 0.69226867
0003f0 b8 fa e8 bd 36 31 a1 bc 70 b5 06 3f 1b 87 ed 3e
       -0.11375946 -0.019676786 0.526206 0.4639214

l1.bias f4 [8]
000000 2d 8a 1d 3f d4 cc 92 3f 95 75 37 3f a8 53 19 3f
       0.61538965 1.1468759 0.7166379 0.59893274
000010 02 e3 8c 3f be 26 fe 3e 09 1b 2e 3f 87 f6 2b 3f
       1.1006777 0.49638933 0.6801 0.67173046

l2.weight f4 [8, 8]
000000 3d 6f 80 3e 1b 60 62 be c2 67 36 3f 21 8f 10 3f
       0.25084868 -0.22106974 0.7125207 0.564684
000010 4f df ae 3c 7d fb e5 3f ca 5f 32 bf bd e2 07 3e
       0.021346716 1.7967373 -0.6967741 0.13270088
000020 b8 ac a9 be 75 1d b5 3f dc 6e b2 3e 05 47 ff be
       -0.33139586 1.4149615 0.34850204 -0.4985887
000030 06 7f 39 3f f7 03 0d bf 2b 8e 75 3f 47 69 1d bf
       0.7245945 -0.55084175 0.95920056 -0.61488765
000040 ad cf 9f 3f d9 eb 08 3f 57 f4 06 3f e2 b3 bf be
       1.2485253 0.53484875 0.52716583 -0.37441927
000050 1e f9 b3 3f d0 4c e7 be f9 1c 9d bf 54 8c 90 3f
       1.40604 -0.4517579 -1.2274467 1.1292825
000060 3c be e3 be cd 80 0b 3e ad a7 7f 3f 0e de 8b bf
       -0.44481075 0.13623352 0.9986523 -1.0927141
000070 9d 40 78 be 77 57 8c 3f e2 6d 4e 3f 95 12 c7 3e
       -0.24243398 1.0964192 0.8063642 0.38881364
000080 89 7f 88 be 5e d2 7a 3f ce 31 c7 3f 79 28 a7 bf
       -0.26659802 0.97977245 1.5562074 -1.3059226
000090 b0 8b 5c bf 0e 18 10 3f 47 38 a5 3f 48 90 bc be
       -0.86150646 0.56286705 1.29078 -0.36828828
0000a0 79 8d b3 3f e9 e1 8f bf 27 78 84 3f a4 4f 40 3f
       1.4027549 -1.1240817 1.0349168 0.7512152
0000b0 ab e6 8a 3f 7a 52 98 be 41 8e 84 3f c3 a4 98 bf
       1.0851644 -0.29750425 1.0355912 -1.1925281
0000c0 d4 04 3f bf f6 46 99 3f b0 67 99 bf 93 64 f7 3e
       -0.7461674 1.197478 -1.1984768 0.4831892
0000d0 42 39 06 3f d4 3c b2 3f 9a a2 08 3f 96 41 84 3f
       0.5243112 1.3924813 0.5337311 1.0332515
0000e0 bd 38 b2 3f 4c 26 4d 3f 75 e7 34 3f 50 4d dc 3e
       1.3923565 0.8013656 0.70665675 0.43027735
0000f0 f0 68 a6 bf cb 31 17 3f 43 f2 98 3e 1f b5 90 3f
       -1.3000774 0.59060353 0.2987233 1.1305274

l2.bias f4 [8]
000000 d1 06 c0 be c6 87 46 3f 62 06 89 3e 72 fd 0f 3d
       -0.375052 0.77550924 0.26762682 0.035153814
000010 ac ad f4 3e 6d e1 01 3f 69 25 18 3f 13 25 ab be
       0.4778875 0.507346 0.59432083 -0.33426723

l3.weight f4 [16, 8]
000000 a0 19 14 bd ef c5 98 be 4d 17 f9 bf 80 37 15 3e
       -0.03615725 -0.2983851 -1.9460236 0.14571953
000010 f3 b9 94 3e ed ff ca bc 62 c2 bd bf 56 bb 0d bc
       0.29048118 -0.024780238 -1.4824946 -0.008650621
000020 9c 05 e1 bf 98 66 57 3f dc aa cf bf 69 0c 88 3e
       -1.7579837 0.8414092 -1.6224017 0.26571968
000030 ab 0e e5 3e 63 2f 91 bf 21 19 2f 3e 16 9d d2 bf
       0.44737753 -1.1342586 0.1709943 -1.6454189
000040 31 b3 16 3f d6 6e be bf 98 5e da bf 34 07 09 3e
       0.58867174 -1.4877574 -1.7060118 0.13381654
000050 4a 15 d8 3d 83 6e ad bf 39 42 5e bd b1 23 27 3f
       0.105509356 -1.354935 -0.054262374 0.65288836
000060 4c 45 a2 3e ef d9 9a 3e 7a 1f d3 bf 85 d3 dd 3e
       0.31693494 0.30244395 -1.6493981 0.4332544
000070 68 e8 2d 3f 84 c0 da bf c4 3b bf be d4 e9 3a be
       0.6793275 -1.7090001 -0.37350285 -0.18253261
000080 8a 41 4c 3f 20 d6 a3 bf 64 7b 0c 3f 6b 8c 9f be
       0.79787505 -1.2799721 0.5487578 -0.31161818
000090 cc c0 a3 bf 70 0b 74 3e 34 4c ba bf 8a ca c8 bf
       -1.2793212 0.23832488 -1.4554505 -1.568681
0000a0 b8 b5 1f c0 76 fd 65 3e 21 a8 cc 3b b1 8d 23 3e
       -2.4954662 0.22459969 0.0062456285 0.1597202
0000b0 6a 42 e3 3e 97 ef 86 bf 77 a3 28 bf bd 5b a3 3e
       0.44386607 -1.0541867 -0.6587443 0.31905928
0000c0 3d d8 e4 bf c6 83 43 3f 52 f7 da 3e 8f 2a 80 bf
       -1.7878491 0.76372945 0.42766815 -1.0012988
0000d0 5a 07 63 bf 16 90 d4 bf a6 c6 2b 3f 18 4b cb bf
       -0.8868309 -1.6606472 0.6709999 -1.5882292
0000e0 66 f0 d8 bf ce c2 9b 3e 18 0c 3f bf 99 cf 12 3f
       -1.6948364 0.30422062 -0.7462783 0.5734802
0000f0 c5 81 d9 3e 8a 0f 74 bc 3b 6d b4 bf b0 f2 e4 bf
       0.4248182 -0.014896283 -1.4095834 -1.7886562
000100 ce 5b 71 bc 09 db 4e bf 6b 0a 59 3d 75 11 07 3f
       -0.014731361 -0.8080297 0.05298845 0.5276101
000110 19 fc 03 3e 14 09 4c 3d 1f 8d d4 bf 96 bf 95 bf
       0.12889136 0.049813345 -1.6605567 -1.1699092
000120 50 a0 09 3f f3 39 f2 bf f7 61 1d be 8b 89 a9 be
       0.5376024 -1.8923935 -0.15369402 -0.3311275
000130 4f a4 8c bf 52 6c e9 bf 90 b5 62 3e 46 13 fc 3e
       -1.0987643 -1.8236182 0.22139573 0.49233454
000140 64 5e 85 bf a5 35 2b bf 83 54 35 3f d4 e5 6d bf
       -1.0419431 -0.6687873 0.7083208 -0.92928815
000150 51 59 95 bf 74 48 57 bf c4 a0 1b be 51 2f 41 3e
       -1.1667882 -0.8409493 -0.15198046 0.18865706
000160 6f 61 c2 3e e2 2c 04 c0 13 e7 a3 3e 94 1e 38 bf
       0.3796496 -2.0652394 0.32012233 -0.7192166
000170 f2 b9 4e bf 2c d2 50 be fd 16 da bf 6f 2e 86 bd
       -0.8075248 -0.20392674 -1.7038265 -0.06551825
000180 13 21 f0 bf 3b de c7 3e 6c 1b a3 bf 3b 5f 41 bf
       -1.8760093 0.39036736 -1.2742743 -0.75535935
000190 ad 2c a0 bf 90 df 31 3e b4 cb 49 3e 36 df b0 bf
       -1.2513634 0.17370439 0.19706613 -1.3818119
0001a0 8d e6 28 bf 98 48 0b bf fe 3b 05 bf 4b 6e cf 3e
       -0.6597679 -0.54407644 -0.52044666 0.40513834
0001b0 b5 77 08 be f2 64 de bf 2d 4f 2d 3f 4b 85 a7 3c
       -0.13326915 -1.7374556 0.6769894 0.020449301
0001c0 9b ee 8a 3e 8b b1 03 c0 61 dc b6 bf d1 b8 06 bf
       0.27135167 -2.0577114 -1.4286004 -0.5262576
0001d0 1b 7b 2d bf 0b 04 83 3e 3c 83 d3 3e 9c 9b 11 bf
       -0.6776597 0.25589022 0.4131106 -0.56878066
0001e0 01 f5 87 bf 0a a5 fa 3d cd fc 03 3c 56 58 ac bf
       -1.0621644 0.1223851 0.008055878 -1.3464458
0001f0 49 40 da be 20 94 06 3f 5d 3c ba bf 78 a9 13 bf
       -0.4262717 0.5256977 -1.4549671 -0.57680464

l3.bias f4 [16]
000000 f4 2b b8 bd c8 4a 92 be ba bb d7 ba 81 c5 8a 3d
       -0.089927584 -0.2857268 -0.0016459145 0.06775952
000010 5e cc 45 bd 94 6a 50 3e af cf 46 3f a8 d7 54 be
       -0.048290603 0.20353156 0.7766065 -0.20785391
000020 93 b1 dc be 84 16 da be 7c 81 3a 3e c6 d7 da 3d
       -0.43104228 -0.42595303 0.18213457 0.10685687
000030 2d 49 3f 3e 4d a6 a0 be 08 b5 0c 3f 5b 42 21 3f
       0.18680258 -0.31376877 0.5496373 0.62991875
